…
1): Linear(in_features=128, out_features=6, bias=True)\n","  )\n","  (train_acc): Accuracy()\n","  (val_acc): Accuracy()\n","  (test_acc): Accuracy()\n",")\n"]},{"output_type":"execute_result","data":{"text/plain":["==========================================================================================\n","Layer (type:depth-idx)                   Output Shape              Param #\n","==========================================================================================\n","LightningModel                           --                        --\n","├─CustomModel: 1-1                       [1, 6]                    --\n","│    └─Conv1d: 2-1                       [1, 8, 51840]             24\n","│    └─Conv1d: 2-2                       [1, 8, 25920]             136\n","│    └─BatchNorm1d: 2-3                  [1, 8, 12960]             16\n","│    └─Conv1d: 2-4                       [1, 16, 12960]            272\n","│    └─Conv1d: 2-5                       [1, 16, 6480]             528\n","│    └─BatchNorm1d: 2-6                  [1, 16, 3240]             32\n","│    └─Conv1d: 2-7                       [1, 32, 3240]             1,056\n","│    └─Conv1d: 2-8                       [1, 32, 1620]             2,080\n","│    └─BatchNorm1d: 2-9                  [1, 32, 810]              64\n","│    └─Conv1d: 2-10                      [1, 64, 810]              4,160\n","│    └─Conv1d: 2-11                      [1, 64, 405]              8,256\n","│    └─BatchNorm1d: 2-12                 [1, 64, 202]              128\n","│    └─LSTM: 2-13                        [1, 202, 128]             99,328\n","│    └─Linear: 2-14                      [1, 6]                    774\n","├─Accuracy: 1-2                          --                        --\n","├─Accuracy: 1-3                          --                        --\n","├─Accuracy: 1-4                          --                        --\n","==========================================================================================\n","Total params: 116,854\n","Trainable params: 116,854\n","Non-trainable params: 
…
