…
padded copy of the input be created (Triggered internally at  ../aten/src/ATen/native/Convolution.cpp:647.)\n","  self.padding, self.dilation, self.groups)\n"]},{"output_type":"execute_result","data":{"text/plain":["==========================================================================================\n","Layer (type:depth-idx)                   Output Shape              Param #\n","==========================================================================================\n","LightningModel                           --                        --\n","├─CustomModel: 1-1                       [1, 6]                    --\n","│    └─Conv1d: 2-1                       [1, 8, 51840]             24\n","│    └─Conv1d: 2-2                       [1, 8, 25920]             136\n","│    └─BatchNorm1d: 2-3                  [1, 8, 12960]             16\n","│    └─Conv1d: 2-4                       [1, 16, 12960]            272\n","│    └─Conv1d: 2-5                       [1, 16, 6480]             528\n","│    └─BatchNorm1d: 2-6                  [1, 16, 3240]             32\n","│    └─Conv1d: 2-7                       [1, 32, 3240]             1,056\n","│    └─Conv1d: 2-8                       [1, 32, 1620]             2,080\n","│    └─BatchNorm1d: 2-9                  [1, 32, 810]              64\n","│    └─LSTM: 2-10                        [1, 810, 32]              8,448\n","│    └─Linear: 2-11                      [1, 6]                    198\n","├─Accuracy: 1-2                          --                        --\n","├─Accuracy: 1-3                          --                        --\n","├─Accuracy: 1-4                          --                        --\n","==========================================================================================\n","Total params: 12,854\n","Trainable params: 12,854\n","Non-trainable params: 0\
…
